model300-2.pt (torch_old, 110504 bytes, 13 tensors)

weight f4 [75, 300]
0.42774597 -0.3144435 -0.18526697 -0.5186529 -0.25072974 0.46374667 0.18763232 0.6070209
0.63696545 -0.7317479 -0.6403489 0.3448279 -0.25283283 0.37823182 0.03245073 0.08920769
-0.40832037 0.2328845 -0.15452449 -0.68485177 0.55713433 1.1250978 0.24768305 -0.35685128
0.38811234 -0.7685841 0.4821299 0.17724577 0.21737106 0.30577508 -0.91762793 0.9256663
-0.12536317 0.55857617 -0.809819 -0.15951806 0.03212501 -0.17344709 -0.6555311 -0.6323834
0.68247974 -0.18231907 -0.028160976 -0.8191392 -0.15212072 0.51555574 -0.31488344 1.1544932
-0.39972156 0.7528075 0.013876034 0.79382384 0.31337008 -0.25981674 1.182334 0.8501509
0.10816916 -0.21526009 -0.13071568 0.085997894 -0.17213823 0.21418415 0.14417654 0.22995532
-0.58319855 -0.7437016 -0.014601142 0.18986681 0.2693171 -0.05235717 0.04346415 -0.5171715
0.096988305 -0.08676899 0.009183662 -0.85819656 0.6181312 -0.11467193 -0.4927856 0.354746
-0.16225721 0.39918905 0.8102887 -0.7621401 -0.29906362 -0.36025384 0.41634995 -0.10986751
0.91623896 -0.05900542 -0.29924318 -0.123562105 0.23243858 0.06621934 0.28338084 0.4618031
-0.5094104 -0.034708455 0.2156916 0.020599615 -0.58019394 0.61535543 -0.13347337 0.9218157
0.8060535 0.4735278 -0.050361615 0.0717409 0.3071958 -0.19058621 -0.23287939 -0.24762426
0.033143338 0.4881189 -0.9095139 -0.19348428 -0.08740496 0.96698844 -0.6695664 0.33225366
-0.42091522 -0.14832133 0.20203362 0.049534164 -0.5252307 0.45650664 -0.56115717 -0.3592942
-0.29167372 0.40613884 0.52618283 0.32433543 -0.61407775 -0.04820047 -0.041068424 0.5313606
-0.39815727 -0.13448773 -0.12727559 -0.11002612 0.3513826 0.60379 0.14678177 0.010710235
-0.5426421 -0.0334575 -0.12452551 0.12913865 0.5112638 0.60003316 0.31433088 -0.57102376
-0.19141959 -0.36027548 -0.3214509 -0.41935635 0.39399594 0.6872879 0.54234415 -0.37856352
-0.2936664 0.031326015 0.78322816 0.3811799 0.44194254 -0.10181989 -0.16250269 0.07639584
-1.0172734 -0.08424149 0.47796023 0.0039610025 -0.53898156 0.58933586 -0.37712064 -0.19959687
-0.26194108 0.34939286 0.24056658 -0.69751024 -0.22129929 -0.14200811 -0.5493054 -0.08454903
-0.023314578 0.43182206 -0.008024867 0.66254234 -0.8187495 -0.47861677 -0.19013062 0.057529725
-0.33061558 -0.69912857 0.29661167 -0.023209859 -0.51071763 -0.64584863 -0.26958737 -0.0042810896
-0.703606 0.20389585 -0.6660859 -0.17593344 0.26754528 0.6111281 -0.47719395 -0.22180025
0.5840776 -0.18319541 0.34445935 -0.77477175 -0.44646847 0.47507885 -0.50288814 0.59265804
-0.34264266 0.09575155 -0.6737476 0.21317415 -0.12509023 0.45822707 0.42687032 0.38145107
-0.25947604 0.010836563 0.40057236 0.1797075 0.17589583 0.57975614 -1.1753733 -0.3256535
0.4903754 -0.3050279 -0.351231 0.27536568 -0.2390679 -0.4265892 0.20474502 -0.031364612
-0.22776966 -0.12839277 -0.10428564 0.19064318 -0.2667304 0.14563636 -0.28966507 -0.31893063
-0.6795985 -0.33374617 0.6416598 -0.5410274 -0.1575315 -0.705133 -0.6112088 -0.09053902
00000000: 8501 db3e bdfe a0be a0b6 3dbe 70c6 04bf
00000010: a65f 80be 3470 ed3e b022 403e b965 1b3f
00000020: 2b10 233f d553 3bbf e8ed 23bf 488d b03e
00000030: 4e73 81be 9aa7 c13e 0feb 043d 85b2 b63d
00000040: 5e0f d1be 4679 6e3e ab3b 1ebe 7252 2fbf
00000050: 5ba0 0e3f 3403 903f a0a0 7d3e 36b5 b6be
00000060: a9b6 c63e edc1 44bf bbd9 f63e ea7f 353e
00000070: 8596 5e3e 8d8e 9c3e aae9 6abf 77f8 6c3f
00000080: 345f 00be d9fe 0e3f 4c50 4fbf b458 23be
00000090: 8495 033d 1d9c 31be e3d0 27bf e1e3 21bf
000000a0: feb6 2e3f dab1 3abe d9b1 e6bc 1bb3 51bf
000000b0: 89c5 1bbe 76fb 033f 6738 a1be 6fc6 933f
000000c0: 4ea8 ccbe feb7 403f 4e58 633c 0a38 4b3f
000000d0: 0b72 a03e b306 85be b856 973f 7da3 593f
000000e0: cb87 dd3d 246d 5cbe 55da 05be aa1f b03d
000000f0: 0145 30be 1753 5b3e 04a3 133e 6879 6b3e
00000100: 804c 15bf 3a63 3ebf a139 6fbc 726c 423e
00000110: eee3 893e 7974 56bd 7707 323d 5a65 04bf
00000120: cea1 c63d f1b3 b1bd 1277 163c c5b2 5bbf
00000130: d93d 1e3f 1ed9 eabd 654e fcbe 45a1 b53e
00000140: c126 26be 8262 cc3e 156f 4f3f 9d1b 43bf
00000150: de1e 99be 3173 b8be d22b d53e 3802 e1bd
00000160: a38e 6a3f abaf 71bd 6736 99be 210e fdbd
00000170: 6104 6e3e 019e 873d 4b17 913e 7571 ec3e
00000180: b868 02bf 742a 0ebd 42de 5c3e 86c0 a83c
00000190: 9787 14bf ef87 1d3f 3ead 08be 1dfc 6b3f
000001a0: 8659 4e3f 3c72 f23e fb47 4ebd e5ec 923d
000001b0: c548 9d3e 0829 43be ef77 6ebe 3791 7dbe
000001c0: 4fc1 073d b8ea f93e e7d5 68bf be20 46be
000001d0: 5f01 b3bd 8e8c 773f b468 2bbf 271d aa3e
000001e0: 3382 d7be 8ce1 17be e7e1 4e3e 56e4 4a3d
000001f0: 8575 06bf 3dbb e93e ffa7 0fbf 69f5 b7be
00000200: 4256 95be 6ef1 cf3e ebb3 063f 4b0f a63e
00000210: 3334 1dbf db6d 45bd 5d37 28bd 4007 083f
00000220: 45db cbbe 27b7 09be 8854 02be 6055 e1bd
00000230: 6ce8 b33e fb91 1a3f f64d 163e fb79 2f3c
00000240: 98ea 0abf bb0a 09bd 3b07 ffbd ec3c 043e
00000250: 2fe2 023f c69b 193f faef a03e 9d2e 12bf
00000260: 7f03 44be 0776 b8be 3695 a4be e0b5 d6be
00000270: d6b9 c93e 1af2 2f3f 11d7 0a3f 14d3 c1be
00000280: 715b 96be b54f 003d a481 483f 032a c33e
00000290: 4b46 e23e f286 d0bd 1b67 26be 6c75 9c3d
000002a0: 0436 82bf cd86 acbd 34b7 f43e 4ccb 813b
000002b0: b2fa 09bf b7de 163f f515 c1be 1f63 4cbe
000002c0: 241d 86be 9fe3 b23e 1657 763e 0890 32bf
000002d0: 489c 62be 936a 11be 479f 0cbf 0b28 adbd
000002e0: 37fe bebc c817 dd3e bb7a 03bc 609c 293f
000002f0: 9199 51bf 420d f5be 9ab1 42be 4aa4 6b3d
00000300: 7246 a9be 17fa 32bf 7cdd 973e 9a22 bebc
00000310: 64be 02bf 5656 25bf 5b07 8abe 6248 8cbb
00000320: 861f 34bf 13ca 503e 9b84 2abf e527 34be
00000330: b2fb 883e e472 1c3f c452 f4be 9b1f 63be
00000340: 1c86 153f 9497 3bbe fa5c b03e 7157 46bf
00000350: 8497 e4be 893d f33e 47bd 00bf 70b8 173f
00000360: dc6e afbe 6319 c43d b97a 2cbf 534a 5a3e
00000370: a717 00be bd9c ea3e bf8e da3e 8e4d c33e
00000380: 0bda 84be d78b 313c d217 cd3e 3e05 383e
00000390: 091e 343e e66a 143f a272 96bf 0ebc a6be
000003a0: 7c12 fb3e 9e2c 9cbe 8dd4 b3be bbfc 8c3e
000003b0: 37ce 74be e669 dabe aea8 513e 2e78 00bd
000003c0: 733c 69be 6579 03be b693 d5bd f737 433e
000003d0: e390 88be b321 153e fb4e 94be e04a a3be
000003e0: 2bfa 2dbf c7e0 aabe d143 243f c680 0abf
000003f0: f04f 21be 9983 34bf 2e78 1cbf 866c b9bd

bias f4 [75]
-5.3915467 -6.6469297 -4.291755 -3.9157088 -6.7334743 -8.51137 -3.3977988 -6.6147647
-6.3477592 -6.9910774 -7.0895267 -5.768696 -2.7049978 -2.782212 -6.5409584 -7.041201
-6.229316 -6.983623 -6.260057 -3.0487866 -6.8362203 -4.273125 -5.767094 -3.0744882
-6.6470313 -6.9366145 -4.524748 -5.869342 -6.617041 -4.887509 -7.330297 -4.999011
-6.64514 -4.8897495 -2.8946586 -6.3560214 -6.5140276 -7.125243 -6.1605167 -5.024707
-3.7063255 -4.2826705 -6.5986195 -3.7773466 -6.1233783 -3.345492 -7.110738 -8.622256
-6.599543 -6.0279107 -3.2875109 -6.8722897 -3.399746 -5.627583 -3.9417975 -6.616864
-6.473091 -6.255339 -6.970287 -6.5824347 -5.2383986 -4.536541 -6.064159 -7.301328
-3.7971144 -6.906977 -7.1572614 -5.590333 -4.9525037 -3.3261201 -3.2223654 -3.238692
-6.771697 -5.226078 -5.5787835
00000000: 8d87 acc0 a6b3 d4c0 0f56 89c0 f99a 7ac0
00000010: 9f78 d7c0 922e 08c1 8975 59c0 27ac d3c0
00000020: d820 cbc0 e8b6 dfc0 67dd e2c0 2899 b8c0
00000030: af1e 2dc0 c30f 32c0 884f d1c0 8551 e1c0
00000040: 8f56 c7c0 d779 dfc0 6352 c8c0 521f 43c0
00000050: 51c2 dac0 71bd 88c0 098c b8c0 6ac4 44c0
00000060: 7bb4 d4c0 bff8 ddc0 bcca 90c0 a6d1 bbc0
00000070: cdbe d3c0 7966 9cc0 cb91 eac0 e6f7 9fc0
00000080: fda4 d4c0 d478 9cc0 1642 39c0 8764 cbc0
00000090: ea72 d0c0 fe01 e4c0 f422 c5c0 66ca a0c0
000000a0: 7034 6dc0 a30b 89c0 e427 d3c0 0cc0 71c0
000000b0: b7f2 c3c0 8a1c 56c0 2a8b e3c0 c3f4 09c1
000000c0: 752f d3c0 a5e4 c0c0 9466 52c0 cce9 dbc0
000000d0: 7095 59c0 2915 b4c0 6946 7cc0 5abd d3c0
000000e0: 9023 cfc0 bd2b c8c0 970c dfc0 4ea3 d2c0
000000f0: f6a0 a7c0 582b 91c0 970d c2c0 7ba4 e9c0
00000100: ec03 73c0 f505 ddc0 4908 e5c0 02e4 b2c0
00000110: e97a 9ec0 27df 54c0 3c3b 4ec0 bb46 4fc0
00000120: beb1 d8c0 083c a7c0 6585 b2c0

weight f4 [75]
1.9498166 1.5627958 1.3343945 1.6999841 1.4727213 2.4001977 1.3172891 1.4792365
1.5465475 1.5994475 1.5896326 1.5902715 1.1298314 1.2736366 1.5051827 1.6590605
1.2300894 1.6374937 1.3774351 1.2968411 1.4412924 1.3103254 1.321743 1.3505611
1.4963286 1.4464599 1.896273 1.4628049 1.3392161 1.2170293 2.0706456 1.5239974
1.7007228 1.6126802 1.3316306 1.4349927 1.8211317 1.5479016 2.4587293 2.1306794
1.2617054 1.37142 1.499886 1.832874 1.3420866 1.5970939 1.6531966 2.0450847
1.4706135 1.5797976 1.2245703 1.6047307 1.7274705 1.2181298 1.2728254 1.7219679
2.855891 1.5344849 1.7515764 1.3241404 1.1416163 1.3802539 1.3026147 2.460582
1.8042471 1.4751124 1.6487155 1.3573909 1.2693852 1.3229516 1.3118393 1.3370992
1.7100956 1.2533134 1.2671248
00000000: 9793 f93f b109 c83f 70cd aa3f 1499 d93f
00000010: 2282 bc3f d79c 1940 ee9c a83f 9f57 bd3f
00000020: 45f5 c53f b2ba cc3f 1579 cb3f 048e cb3f
00000030: 519e 903f 8606 a33f d4a9 c03f 185c d43f
00000040: 9273 9d3f 6599 d13f cb4f b03f e4fe a53f
00000050: 457c b83f beb8 a73f e02e a93f 30df ac3f
00000060: b287 bf3f 9925 b93f 13b9 f23f 313d bb3f
00000070: 6f6b ab3f 9ec7 9b3f 7585 0440 5912 c33f
00000080: 49b1 d93f 4e6c ce3f df72 aa3f d7ad b73f
00000090: d81a e93f a421 c63f d25b 1d40 0d5d 0840
000000a0: 907f a13f b18a af3f 44fc bf3f 9d9b ea3f
000000b0: 7ec9 ab3f 936d cc3f f29b d33f abe2 0240
000000c0: 103d bc3f cf36 ca3f b8be 9c3f d167 cd3f
000000d0: c11d dd3f adeb 9b3f f1eb a23f 7269 dc3f
000000e0: ebc6 3640 006a c43f a833 e03f 6f7d a93f
000000f0: 7c20 923f 29ac b03f 14bc a63f 2d7a 1d40
00000100: 92f1 e63f 7cd0 bc3f 1c09 d33f fcbe ad3f
00000110: 377b a23f 7a56 a93f 5aea a73f 1126 ab3f
00000120: 6ae4 da3f 936c a03f 2531 a23f

bias f4 [75]
-0.65301836 -0.4746987 0.8393414 0.9375578 0.030792717 0.85692257 0.57765955 -1.1617049
-0.1816347 -0.107683316 -0.07566616 -0.8001382 0.9259275 0.48840362 0.56833476 -0.031574488
-0.2934356 -0.081632674 -0.47447422 0.73148525 0.4135359 0.8652744 -0.6223854 0.36826837
-1.0022686 0.22142634 -0.15759814 -0.39791995 0.50995857 0.93455434 0.37040824 0.59102356
-1.295801 0.19027154 0.605508 -0.6513781 -0.42630035 0.4048274 0.45584643 -0.14655022
0.8912574 0.82958376 -0.887362 0.20454954 -1.2286657 0.3621984 0.42209792 -0.061362583
-0.79946125 0.39856154 0.76655376 0.059593804 0.15829672 1.2418426 0.6180891 -1.2220886
0.010298859 0.25397918 0.70576614 -0.53419137 0.6335284 0.67281747 -0.32932565 0.17575523
-0.066987425 0.41902146 0.08827116 -0.07212542 1.1000373 0.017639728 0.59421825 0.585264
0.021334287 0.42327592 -0.08152278
00000000: 362c 27bf b50b f3be 14df 563f ca03 703f
00000010: 0241 fc3c 475f 5b3f 7fe1 133f bfb2 94bf
00000020: 72fe 39be 1289 dcbd dcf6 9abd dbd5 4cbf
00000030: 9609 6d3f 0a10 fa3e 637e 113f 4054 01bd
00000040: 313d 96be 082f a7bd 49ee f2be 9e42 3b3f
00000050: faba d33e a082 5d3f a654 1fbf ac8d bc3e
00000060: 564a 80bf 96bd 623e 6861 21be 2abc cbbe
00000070: a58c 023f f43e 6f3f 26a6 bd3e 524d 173f
00000080: cfdc a5bf 8bd6 423e 9302 1b3f b7c0 26bf
00000090: 0a44 dabe 8945 cf3e b464 e93e 4311 16be
000000a0: 7229 643f 9a5f 543f 282a 63bf 6f75 513e
000000b0: eb44 9dbf 1272 b93e 381d d83e 5557 7bbd
000000c0: 7ea9 4cbf 4210 cc3e de3c 443f a218 743d
000000d0: 8918 223e b3f4 9e3f 163b 1e3f 666d 9cbf
000000e0: 8cbc 283c 8f09 823e 17ad 343f c4c0 08bf
000000f0: eb2e 223f c43d 2c3f 5f9d a8be 2ef9 333e
00000100: b430 89bd fb89 d63e 83c7 b43d 7eb6 93bd
00000110: 06ce 8c3f 3181 903c b01e 183f ddd3 153f
00000120: 3ec5 ae3c 9fb7 d83e 6af5 a6bd

running_mean f4 [75]
0.16760577 0.002331441 0.028239239 0.14359462 0.023477174 0.007848791 0.09417779 0.0038841031
0.0058536315 0.003140992 0.01095614 0.0050111837 0.13682303 0.10068648 0.011335736 0.013296206
0.0029370824 0.002471702 0.0035274038 0.08503057 0.016592832 0.10364464 0.007430846 0.13418368
0.0049444693 0.05209517 0.16045237 0.006672403 0.009797295 0.053296328 0.004606262 0.04395038
0.0058467723 0.015545755 0.16599052 0.005545759 0.0029015641 0.0058603305 0.031485114 0.15044369
0.041840453 0.045866765 0.0027775192 0.14411359 0.0040620835 0.12650503 0.003189042 0.0045247795
0.0065251617 0.008711775 0.07037654 0.011390041 0.19402048 0.0063629197 0.18255946 0.0052929125
0.0063618314 0.010367297 0.0017071667 0.0048324373 0.012804551 0.020061124 0.011424892 0.0054775532
0.1141669 0.0044776825 0.0016327042 0.008950019 0.011929042 0.0932312 0.12400222 0.07762663
0.003921709 0.008365608 0.008107788
00000000: d9a0 2b3e 17cb 183b fa55 e73c 780a 133e
00000010: 3453 c03c 3798 003c 49e0 c03d 708c 7e3b
00000020: d2cf bf3b 1ad9 4d3b 6281 333c db34 a43b
00000030: 561b 0c3e b734 ce3d 86b9 393c 54d8 593c
00000040: 117c 403b 47fc 213b 042c 673b 8224 ae3d
00000050: b1ed 873c a443 d43d 747e f33b 7267 093e
00000060: 3705 a23b bf61 553d a04d 243e 2ca4 da3b
00000070: d584 203c 404d 5a3d 20f0 963b 5005 343d
00000080: 4896 bf3b 9fb3 7e3c 6bf9 293e 33b9 b53b
00000090: 2b28 3e3b 0408 c03b 89f6 003d e90d 1a3e
000000a0: e560 2b3d cade 3b3d 0a07 363b 8392 133e
000000b0: 3a1b 853b 898a 013e 3fff 503b 9a44 943b
000000c0: 06d1 d53b d5bb 0e3c 9321 903d 4b9d 3a3c
000000d0: 4ead 463e 0a80 d03b def0 3a3e 2b70 ad3b
000000e0: e976 d03b 98db 293c 02c3 df3a 6c59 9e3b
000000f0: 2eca 513c 3a57 a43c 782f 3b3c 0c7d b33b
00000100: 56d0 e93d 86b9 923b 7600 d63a 1aa3 123c
00000110: 0772 433c 00f0 be3d e0f4 fd3d b6fa 9e3d
00000120: ae81 803b e70f 093c 87d6 043c

running_var f4 [75]
0.22142869 3.897797e-05 0.003831921 0.1385921 0.015088519 0.0008657464 0.03504389 0.00017374691
0.0010745744 0.00016246556 0.0039700433 8.618236e-05 0.063895375 0.03234801 0.0017124463 0.0020076616
2.7639455e-05 0.00012867188 5.2248175e-05 0.024192823 0.002635996 0.05645347 0.0008816593 0.07081918
0.0003193117 0.052301127 0.19313109 0.0009297474 0.0007117974 0.017139615 0.00024780596 0.011670341
0.00047298128 0.0027549127 0.10428052 0.00045468757 4.055947e-05 0.0013103148 0.008624941 0.1802093
0.0060358844 0.009877244 8.285963e-05 0.13978872 7.905453e-05 0.09370925 0.00025860246 0.0003337339
0.0005784061 0.0005247655 0.018581415 0.0014626576 0.22445267 0.00023907617 0.15373048 0.00029626337
0.0003425843 0.0009567581 2.5858279e-05 0.0003018087 0.0006997385 0.0027063184 0.0019698397 0.0002796334
0.08972075 0.00016088858 3.9976803e-05 0.0011597921 0.00071744184 0.047181573 0.0647127 0.020424008
0.0003264521 0.00035963094 0.0011005433
00000000: 34be 623e 477c 2338 f720 7b3b 16eb 0d3e
00000010: d635 773c 42f3 623a 2f8a 0f3d d52f 3639
00000020: bcd8 8c3a 845b 2a39 2317 823b cdbc b438
00000030: 94db 823d 597f 043d 2a74 e03a f992 033b
00000040: 47db e737 18ec 0639 0d25 5b38 0730 c63c
00000050: adc0 2c3b c13b 673d 271f 673a a509 913d
00000060: 4a69 a739 b539 563d 28c4 453e 4bba 733a
00000070: ea97 3a3a 6168 8c3c f4eb 8139 f534 3f3c
00000080: 79fa f739 c48b 343b 0691 d53d 2263 ee39
00000090: 661e 2a38 debe ab3a a04f 0d3c c988 383e
000000a0: abc8 c53b 2ad4 213c edc4 ad38 c624 0f3e
000000b0: 14ca a538 a3ea bf3d 0995 8739 01f9 ae39
000000c0: 2da0 173a 6b90 093a 0d38 983c a5b6 bf3a
000000d0: ecd6 653e 85b0 7a39 866b 1d3e cc53 9b39
000000e0: e39c b339 f3ce 7a3a 3bea d837 143c 9e39
000000f0: a86e 373a 7d5c 313b 6d18 013b c29b 9239
00000100: 83bf b73d 33b4 2839 c4ac 2738 2a04 983a
00000110: b512 3c3a 7741 413d 1888 843d 4050 a73c
00000120: a927 ab39 d98c bc39 1b40 903a

weight f4 [25, 75]
0.03257793 -0.17211123 -0.31820813 -0.042985015 -0.40814206 -0.27621615 -0.36203766 0.6211322
-0.06576947 -0.023987116 -0.28452608 0.018612504 -0.30956292 -0.25658244 -0.14583486 -0.37688634
-0.18956041 -0.25636068 -0.15075369 -0.32151276 -0.35490382 -0.30788872 0.5515831 -0.41125113
0.7371622 -0.2959638 -0.0038102071 0.5788502 -0.34818596 -0.35342047 -0.44335583 -0.46773392
-0.12402922 -0.13560556 -0.36559632 0.46049216 -0.15913548 -0.32706028 1.4838237 -0.008519452
-0.31014067 -0.4190936 0.6029384 0.010114132 0.05054646 -0.01809311 -0.3755767 -0.19436905
0.7320309 -0.43637136 -0.31259272 -0.118183196 0.020422278 -0.10061789 -0.28898644 -0.1692442
-0.18716575 -0.10285908 -0.27814698 0.309012 -0.24519132 -0.0530491 0.16767956 -0.14560328
0.015878791 -0.37037006 -0.31728044 0.0032382607 -0.0801098 -2.5615374e-05 -0.40115753 -0.36259004
-0.16460073 -0.031095203 0.5005898 -0.77400595 -0.12306124 -0.0847452 -0.9575658 0.061938785
-0.6372512 -0.10739702 0.19160414 -0.26466325 -0.17198631 -0.054288466 0.06679691 -0.06681512
0.043209653 -0.44755095 0.3013586 0.18265489 -0.17196262 0.12770891 -0.07860092 0.21614705
-0.13965161 -0.09747889 -0.048592407 0.088494144 0.28961593 -0.918711 -0.14471707 0.1739696
-0.101452395 0.28155577 -0.15762526 0.38190642 -0.15250386 -0.09630204 0.039160017 0.09658982
0.027010735 0.0020833765 -0.9651192 -0.101063244 0.085010536 0.15537041 -1.1014355 0.10487734
-0.9505422 -0.375836 -0.1314448 0.027042063 0.22122096 -0.08654892 -0.36860645 -0.99822885
-0.55096877 -0.06780993 0.3424681 -1.9387475 -0.35450593 -0.21531808 0.11438856 0.108237036
-0.6405032 -0.012805879 0.037980404 -0.9699703 0.34498382 -0.17143197 -0.12539242 -0.60203695
-0.5910799 -0.02563797 -0.041789524 -0.117222495 -0.55336744 -0.041695584 -0.69264764 0.15410218
-0.23594089 -0.7972113 0.25955248 0.74392116 -0.27266076 0.14490995 -0.25139073 -0.22074096
0.46361953 0.12999204 -0.24111938 -0.0041336264 -0.5190095 0.26727945 0.111362964 0.3379692
0.16638899 -0.19266322 0.13531677 -0.25580332 -0.12139931 -0.10153593 -0.14840497 0.24888662
-0.9146868 -0.1463099 0.11664869 -0.28694788 0.1292974 -0.25819165 0.18401213 -0.15529938
-0.18565437 -0.012680199 0.16152315 0.39630026 -0.07526808 -0.94410723 -0.2316632 0.10337365
0.25198054 -0.9694379 0.3036447 -0.90558696 0.47996712 -0.20275158 -0.14736295 0.5753477
-0.12417904 -0.49829587 -0.8723089 -0.5939832 -0.2683013 0.21916746 0.05032461 -0.49734366
0.3728773 0.1134736 0.04272418 -0.7307749 0.0014819937 0.000665507 -0.91811854 0.3652717
0.5132351 -0.27922535 -0.6156906 -0.64067286 -0.081158504 -0.2629131 0.24919039 -0.5052391
-0.10071638 -0.54984796 0.2887207 -0.11176619 -0.65434074 0.122517146 -0.3482315 -0.0432132
0.06550342 -0.15660238 -0.1347832 0.25975475 -0.41772497 -0.07316626 -0.0011192345 -0.25765038
0.35414377 0.21402922 0.15855429 0.2599611 -0.06621183 -0.06390495 -0.116740555 -0.16663218
0.003875061 0.013987822 0.01249796 -0.62376136 -0.110954836 -0.038412284 -0.1064878 -0.44581264
00000000: 6f70 053d ed3d 30be 2dec a2be 0e11 30bd
00000010: fff7 d0be 346c 8dbe 005d b9be 8502 1f3f
00000020: 25b2 86bd a180 c4bc 67ad 91be 4079 983c
00000030: 087f 9ebe c65e 83be bc55 15be 3ff7 c0be
00000040: 201c 42be b541 83be 2d5f 1abe 529d a4be
00000050: f4b5 b5be 97a3 9dbe 8d34 0d3f 828f d2be
00000060: a9b6 3c3f 9188 97be abb4 79bb 872f 143f
00000070: 6e45 b2be 87f3 b4be 89ff e2be d27a efbe
00000080: 0803 febd 2fdc 0abe 712f bbbe a1c5 eb3e
00000090: 69f4 22be 7274 a7be efed bd3f 2c95 0bbc
000000a0: c2ca 9ebe 7093 d6be 2c5a 1a3f bfb5 253c
000000b0: ce09 4f3d 0038 94bc 974b c0be ae08 47be
000000c0: 6166 3b3f 116c dfbe 270c a0be 080a f2bd
000000d0: 9f4c a73c c110 cebd 08f6 93be 5a4e 2dbe
000000e0: 61a8 3fbe c8a7 d2bd 4869 8ebe d236 9e3e
000000f0: 6f13 7bbe 034a 59bd 31b4 2b3e 0719 15be
00000100: 3d14 823c 25a1 bdbe 9572 a2be 0039 543b
00000110: 9b10 a4bd 99e0 d6b7 8564 cdbe 67a5 b9be
00000120: 188d 28be 5ebb febc a726 003f 4125 46bf
00000130: 8807 fcbd e48e adbd 0823 75bf 86b3 7d3d
00000140: e522 23bf f8f2 dbbd e033 443e f181 87be
00000150: 2e1d 30be 955d 5ebd d1cc 883d 5ed6 88bd
00000160: 9bfc 303d 6625 e5be ad4b 9a3e e209 3b3e
00000170: f816 30be 20c6 023e 85f9 a0bd a755 5d3e
00000180: d500 0fbe 03a3 c7bd d508 47bd 6b3c b53d
00000190: 8a48 943e a530 6bbf b630 14be 1625 323e
000001a0: 46c6 cfbd 1428 903e 8468 21be 3d89 c33e
000001b0: f929 1cbe 013a c5bd 4166 203d e2d0 c53d
000001c0: 9e45 dd3c 4289 083b 0d12 77bf 3ffa cebd
000001d0: 011a ae3d 6c19 1f3e d7fb 8cbf eec9 d63d
000001e0: bc56 73bf 946d c0be 7799 06be 5187 dd3c
000001f0: bf87 623e 8f40 b1bd fcb9 bcbe ed8b 7fbf
00000200: 4a0c 0dbf efdf 8abd fb57 af3e e128 f8bf
00000210: cd81 b5be 587c 5cbe 8d44 ea3d 61ab dd3d
00000220: 05f8 23bf c0cf 51bc 5791 1b3d f94f 78bf
00000230: b8a1 b03e dd8b 2fbe df66 00be 181f 1abf
00000240: 0351 17bf b806 d2bc 7e2b 2bbd 5912 f0bd
00000250: 7da9 0dbf fdc8 2abd 5b51 31bf f6cc 1d3e
00000260: 7d9a 71be 0a16 4cbf 10e4 843e 9e71 3e3f
00000270: 319a 8bbe 4663 143e 49b6 80be eb09 62be
00000280: 8a5f ed3e a21c 053e 00e8 76be 5f73 87bb
00000290: cedd 04bf dad8 883e 4412 e43d 4d0a ad3e
000002a0: e061 2a3e 8249 45be 7b90 0a3e a7f8 82be
000002b0: 34a0 f8bd 12f2 cfbd 79f7 17be 22dc 7e3e
000002c0: ea28 6abf 43d2 15be 82e5 ee3d d5ea 92be
000002d0: 8a66 043e b231 84be ad6d 3c3e cd06 1fbe
000002e0: 2e1c 3ebe 9cc0 4fbc 5366 253e dee7 ca3e
000002f0: 2726 9abd 03b1 71bf 1e39 6dbe 90b5 d33d
00000300: 9803 813e 152d 78bf 5177 9b3e 8cd4 67bf
00000310: 40be f53e 1c9e 4fbe 50e6 16be fd49 133f
00000320: 9551 febd a320 ffbe a34f 5fbf 480f 18bf
00000330: ca5e 89be 6f6d 603e 2e21 4e3d d4a3 febe
00000340: c6e9 be3e d964 e83d 8dff 2e3d 1014 3bbf
00000350: 753f c23a 6b75 2e3a d109 6bbf e404 bb3e
00000360: 6063 033f a0f6 8ebe e69d 1dbf 2303 24bf
00000370: 6e36 a6bd 8c9c 86be c42b 7f3e 5a57 01bf
00000380: 6444 cebd d6c2 0cbf 33d3 933e ace5 e4bd
00000390: e082 27bf 45ea fa3d 664b b2be 5300 31bd
000003a0: a826 863d 605c 20be 9b04 0abe 93fe 843e
000003b0: 0ce0 d5be 31d8 95bd 47b3 92ba c0ea 83be
000003c0: 5552 b53e 7a2a 5b3e 0e5c 223e 9f19 853e
000003d0: 119a 87bd 99e0 82bd ac15 efbd a0a1 2abe
000003e0: bcf4 7d3b 2e2d 653c 3ec4 4c3c d3ae 1fbf
000003f0: 4a3c e3bd 3356 1dbd 4716 dabd 8e41 e4be

bias f4 [25]
-1.0405849 -1.0192868 -0.30767018 -1.1511071 -0.94883776 -0.5492269 -0.47963348 -0.46969917
-0.67507786 -0.90131104 -0.74893284 -0.9443179 -0.29721245 -0.39716345 -0.5431588 -0.4966439
-0.91134125 -0.3372601 -0.5378375 -0.4233252 -0.68731856 -1.1278632 -0.38371003 -1.1003857
-0.75586045
00000000: e331 85bf fd77 82bf f286 9dbe 7a57 93bf
00000010: 08e7 72bf 229a 0cbf 8592 f5be 697c f0be
00000020: e7d1 2cbf 52bc 66bf 10ba 3fbf d1be 71bf
00000030: 3b2c 98be 0259 cbbe 750c 0bbf 1c48 febe
00000040: a94d 69bf 5bad acbe b8af 09bf 15be d8be
00000050: 1cf4 2fbf d25d 90bf a475 c4be 70d9 8cbf
00000060: 1280 41bf

weight f4 [25]
1.491079 1.0603591 0.9798252 1.1772029 1.1055478 1.1783562 1.3418163 1.3368626
1.455173 1.104943 1.0102636 1.544116 1.3879336 0.9841565 0.9346213 1.062036
1.4705507 0.9555341 0.97132474 1.2403259 1.0352929 1.6642851 1.2912582 1.14781
1.2009512
00000000: addb be3f d9b9 873f d3d5 7a3f 96ae 963f
00000010: 9782 8d3f 60d4 963f a3c0 ab3f 501e ab3f
00000020: 1c43 ba3f c66e 8d3f 5150 813f 98a5 c53f
00000030: cfa7 b13f aef1 7b3f 5743 6f3f ccf0 873f
00000040: 013b bc3f e29d 743f bda8 783f 00c3 9e3f
00000050: 7a84 843f 4b07 d53f f347 a53f 70eb 923f
00000060: c5b8 993f

bias f4 [25]
0.11823165 -0.06023412 -0.016937114 -0.048450757 -0.030489948 -0.03680492 0.09266137 0.09141058
0.09010227 -0.03451527 -0.021675663 0.12256405 0.08885942 -0.041577898 -0.0249284 0.00084349234
0.09997248 -0.048190154 -0.029377714 0.09570103 -0.05622412 0.005692818 0.086985536 -0.01553152
-0.05951899
00000000: 6f23 f23d 0db8 76bd b4bf 8abc 4d74 46bd
00000010: 0ec6 f9bc c1c0 16bd 3fc5 bd3d 7835 bb3d
00000020: 8a87 b83d e25f 0dbd 2991 b1bc dc02 fb3d
00000030: edfb b53d 964d 2abd a536 ccbc d01d 5d3a
00000040: 5fbe cc3d 0a63 45bd 88a9 f0bc e7fe c33d
00000050: 434b 66bd d28a ba3b 7925 b23d eb77 7ebc
00000060: 2fca 73bd

running_mean f4 [25]
0.09761812 0.2757038 0.3043603 0.11240482 0.124982454 0.122090004 0.10793594 0.0951798
0.08675874 0.14691079 0.23223613 0.10407514 0.112638064 0.3025235 0.25874612 0.2547553
0.09662174 0.3516574 0.25234106 0.08926936 0.2581644 0.102055304 0.10691435 0.122707866
0.13919277
00000000: 02ec c73d 0c29 8d3e 1dd5 9b3e 8034 e63d
00000010: cdf6 ff3d 530a fa3d 850d dd3d a1ed c23d
00000020: 91ae b13d c86f 163e 4fcf 6d3e 5925 d53d
00000030: c9ae e63d 5ce4 9a3e 5f7a 843e 496f 823e
00000040: 9ee1 c53d 700c b43e d932 813e dbd2 b63d
00000050: 202e 843e 5f02 d13d e9f5 da3d 434e fb3d
00000060: 8d88 0e3e

running_var f4 [25]
0.15268633 0.3241385 0.35804108 0.11712997 0.19897023 0.16067132 0.14379254 0.12378741
0.13417959 0.16476196 0.35368055 0.16188774 0.16625792 0.35622197 0.38566247 0.3709395
0.15082747 0.43166816 0.3793908 0.108305775 0.29467264 0.16155882 0.14664544 0.13187283
0.18899743
00000000: ce59 1c3e 7bf5 a53e 2951 b73e d6e1 ef3d
00000010: dabe 4b3e 0687 243e 5a3e 133e 4184 fd3d
00000020: 6066 093e 5cb7 283e 9e15 b53e e6c5 253e
00000030: 843f 2a3e ba62 b63e 8d75 c53e c8eb bd3e
00000040: 8472 1a3e 9c03 dd3e 833f c23e 6bcf dd3d
00000050: 55df 963e ad6f 253e 392a 163e ac09 073e
00000060: 8b88 413e

weight f4 [1, 25]
-0.60423493 0.16837227 0.1400152 0.2719064 0.31104663 0.32867163 -0.5144004 -0.4716567
-0.6485049 0.29183003 0.18315859 -0.66079015 -0.5717253 0.19200912 0.17740655 0.19751675
-0.6057593 0.16423947 0.19206093 -0.3922113 0.1857972 -0.57357675 -0.47964796 0.22045481
0.33205295
00000000: 24af 1abf c869 2c3e 2560 0f3e 5137 8b3e
00000010: 8141 9f3e a647 a83e bfaf 03bf fd7c f1be
00000020: 6b04 26bf bf6a 953e ed8d 3b3e 8b29 29bf
00000030: 975c 12bf 0a9e 443e 10aa 353e d541 4a3e
00000040: 0b13 1bbf 642e 283e 9fab 443e ebcf c8be
00000050: 9f41 3e3e edd5 12bf 6b94 f5be e8be 613e
00000060: d802 aa3e
